outputs/neural_network/final_model.pt (torch, 204114 bytes, 20 tensors)

layers.0.weight f4 [256, 20]
-0.15693292 0.10293564 0.15487711 0.07262944 0.8428103 0.52063495 -0.04468818 -0.13440758
-0.07033875 -0.21631873 0.090647936 -0.2278342 -0.6193433 -0.123874575 -0.29551092 0.46163356
-0.53660506 -0.30108625 -0.005979387 0.07762065 0.5311644 -0.14131963 0.009515171 0.32772917
-0.22959805 -0.45136607 -0.23051226 -0.22126059 -0.15767817 0.5831945 -0.59383595 0.1364201
0.16381256 0.041182622 0.03844402 -0.0036747633 0.26037365 0.44309795 0.0015197704 -0.010438232
-0.25322756 0.019328672 0.13565594 0.5797914 -0.33471024 -0.2067565 -0.047229186 0.28482205
-0.015440169 0.18757597 0.1385707 -0.15429237 0.07451089 -0.037248902 0.25265342 -0.1084878
0.37371004 0.13669294 -0.24517304 0.10941295 -0.057202958 0.10754864 -0.6193062 -0.7426202
0.30336213 0.14685223 -0.20175533 0.14310956 -0.43253088 0.3791302 0.06745088 -0.38239518
0.35239628 0.14630759 0.013677372 -0.19580016 -0.036736615 -0.72676456 -0.051226795 0.22478127
-0.14615469 -0.3851739 1.4405504 -0.038873635 0.27170944 0.074101605 -0.55923396 -0.030899275
0.111558385 -0.055816136 0.11808625 -0.09615987 -0.027882738 -0.05461552 -0.08063002 0.092557
0.029708665 0.36393654 -0.19110739 -0.0056551713 -0.19549496 0.13181879 0.75422597 0.1610756
0.008057956 0.24711743 -0.071377955 -0.061086632 -0.028941866 0.056352146 -0.04727838 0.063446425
-0.20589116 -0.029657893 0.19983372 -0.47978342 0.058439344 0.39395857 -0.22157729 0.0258025
-0.15099436 0.1245949 0.013177509 0.75291646 -0.03461069 -0.045896187 0.0015146182 -0.08510752
0.0452811 -0.08342409 -0.051063877 -0.1933586 -0.16452245 0.054168805 -0.30577335 0.21144465
-0.14040096 -0.23391324 -0.13960509 -0.019780857 0.26422927 -0.105623774 -0.20239745 -0.012125252
0.33707148 0.3293555 -0.23916274 -0.011728909 -0.10754682 -0.27763638 -0.6202094 0.21983656
-0.12872586 -0.0486688 0.04375547 -0.3605817 -0.03287622 0.50403845 0.16413271 0.06943355
-0.41010255 0.1915941 -0.22606799 0.15089333 0.24321088 -0.78931004 0.06498738 0.14478044
-0.13381198 -0.0075283125 -0.1758061 0.25961155 0.20164448 0.17116664 -0.16486873 0.49069595
0.045660727 0.08004748 0.05667013 0.5475303 0.30972597 -0.20791993 -0.35965762 0.31465006
0.04747536 -0.45792627 -0.17938858 0.5624553 -0.19777891 0.4068838 -0.19984636 -0.024247317
0.019910468 0.042034626 0.04593867 -0.5677261 0.04007311 0.18331012 -0.34334788 -0.16160758
0.22929192 -0.36544645 -0.37529188 -0.020409534 -0.62912583 -0.2181988 0.42776763 0.41351295
0.29297206 0.18248212 0.18071628 -0.020047324 0.0020264704 -0.15576434 0.039138492 0.13444301
-0.18955028 -0.11340706 -0.12696014 -0.27705944 0.09871039 -0.6061951 0.60124755 -0.3107214
0.09777395 -0.06788912 -0.101205595 0.08969228 0.33645195 0.1559419 0.16924515 0.16040626
-0.066388115 -0.25919273 0.08018907 0.1271357 0.5829944 -0.027135903 -0.06397719 0.08849883
-0.08459999 -0.049745977 0.10921918 0.23818156 -0.17516601 0.7395798 0.4412397 -0.28698248
0.3343665 -0.22213411 -0.044564053 0.13268743 -0.057005763 0.12704071 0.020421863 -0.030244004
00000000: 06b3 20be eccf d23d 1b98 1e3e bebe 943d
00000010: 6ac2 573f 5548 053f f40a 37bd 24a2 09be
00000020: c30d 90bd a882 5dbe a0a5 b93d 5e4d 69be
00000030: 488d 1ebf f4b1 fdbd 354d 97be 3c5b ec3e
00000040: f35e 09bf fa27 9abe bcee c3bb 93f7 9e3d
00000050: 64fa 073f 18b6 10be 85e5 1b3c 1ecc a73e
00000060: c01b 6bbe 7419 e7be 680b 6cbe 2392 62be
00000070: 6376 21be 3c4c 153f a205 18bf b6b1 0b3e
00000080: 7bbe 273e 1caf 283d 7a77 1d3d 4cd4 70bb
00000090: b24f 853e bcdd e23e 0833 c73a 1e05 2bbc
000000a0: 0ba7 81be 2a57 9e3c 64e9 0a3e 366d 143f
000000b0: 245f abbe fab7 53be 6473 41bd 32d4 913e
000000c0: c3f8 7cbc ea13 403e 7ae5 0d3e d2fe 1dbe
000000d0: 2a99 983d 4e92 18bd ca5b 813e da2e debd
000000e0: ec56 bf3e 3cf9 0b3e a40e 7bbe e613 e03d
000000f0: a64d 6abd 7642 dc3d da8a 1ebf 5c1c 3ebf
00000100: 4852 9b3e 6e60 163e f398 4ebe 508b 123e
00000110: b074 ddbe 5b1d c23e b023 8a3d 4dc9 c3be
00000120: 496d b43e a8d1 153e 0e17 603c d67f 48be
00000130: 2279 16bd 3e0d 3abf 30d3 51bd 102d 663e
00000140: 93a9 15be 8335 c5be f563 b83f f639 1fbd
00000150: 801d 8b3e 95c2 973d f529 0fbf 7a20 fdbc
00000160: b978 e43d 769f 64bd 34d7 f13d 77ef c4bd
00000170: 576a e4bc 86b4 5fbd 5a21 a5bd 868e bd3d
00000180: 965f f33c e455 ba3e a8b1 43be 044f b9bb
00000190: d52f 48be 81fb 063e f414 413f 01f1 243e
000001a0: 8405 043c 5a0c 7d3e 9b2e 92bd fa35 7abd
000001b0: 7e17 edbc 82d1 663d f9a6 41bd 33f0 813d
000001c0: 22d5 52be 1cf5 f2bc 36a1 4c3e 2ca6 f5be
000001d0: 185e 6f3d f0b4 c93e 28e5 62be c45f d33c
000001e0: 449e 1abe 9c2b ff3d 7be6 573c 22bf 403f
000001f0: f0c3 0dbd a4fd 3bbd 2786 c63a da4c aebd
00000200: ad78 393d 40da aabd 5b28 51bd ccff 45be
00000210: 9378 28be 1ce0 5d3d 538e 9cbe f284 583e
00000220: 45c5 0fbe f486 6fbe a3f4 0ebe 770b a2bc
00000230: 0f49 873e 4751 d8bd 4741 4fbe fea8 46bc
00000240: a294 ac3e 49a1 a83e 14e7 74be 9c2a 40bc
00000250: 8241 dcbd 5b26 8ebe 0bc6 1ebf d61c 613e
00000260: b6d0 03be f058 47bd f038 333d 2a9e b8be
00000270: 37a9 06bd aa08 013f 6812 283e 2d33 8e3d
00000280: f6f8 d1be 3e31 443e 5e7e 67be c883 1a3e
00000290: 460c 793e 3910 4abf 1a18 853d 5341 143e
000002a0: 0206 09be 10b0 f6bb 8406 34be ceeb 843e
000002b0: e47b 4e3e 4f46 2f3e 59d3 28be 803c fb3e
000002c0: be06 3b3d efef a33d f01e 683d f22a 0c3f
000002d0: 6794 9e3e f6e8 54be 0b25 b8be d019 a13e
000002e0: 8675 423d 5075 eabe a4b1 37be 12fd 0f3f
000002f0: 8e86 4abe 1353 d03e 86a4 4cbe 4fa2 c6bc
00000300: 471b a33c 802c 2c3d 302a 3c3d 7f56 11bf
00000310: b423 243d a6b5 3b3e 4bcb afbe 757c 25be
00000320: 80cb 6a3e cc1b bbbe 4226 c0be e531 a7bc
00000330: 640e 21bf 826f 5fbe 5c04 db3e f8b7 d33e
00000340: 6f00 963e 98dc 3a3e b00d 393e 493a a4bc
00000350: 88ce 043b b080 1fbe af4f 203d 6eab 093e
00000360: 7819 42be f641 e8bd d701 02be bcda 8dbe
00000370: ac28 ca3d 9a2f 1bbf 5ceb 193f e016 9fbe
00000380: b53d c83d 7309 8bbd e144 cfbd 96b0 b73d
00000390: 6e43 ac3e 3caf 1f3e 9a4e 2d3e 8a41 243e
000003a0: 7ef6 87bd e9b4 84be 2b3a a43d dc2f 023e
000003b0: 1f3f 153f 1d4c debc 7906 83bd e03e b53d
000003c0: c242 adbd 70c2 4bbd 4eae df3d dee5 733e
000003d0: b85e 33be 1a55 3d3f 2cea e13e 5eef 92be
000003e0: 1632 ab3e 2077 63be cc88 36bd 37df 073e
000003f0: e07e 69bd f616 023e c04b a73c 46c2 f7bc

layers.0.bias f4 [256]
1.1617962e-05 1.7552671e-05 1.0743754e-05 5.642866e-05 0.00015162282 4.803612e-05 -8.189959e-06 1.788565e-05
1.567486e-05 -8.465415e-06 3.4095458e-05 -5.645156e-06 -4.4033095e-05 9.130644e-06 2.4476645e-05 -1.4967018e-06
2.1233936e-06 2.942596e-05 2.3165048e-05 3.1171305e-05 1.1740196e-06 2.8861737e-06 -2.8977242e-05 2.5474674e-05
-3.002368e-05 1.8510116e-05 1.34148795e-05 -9.551057e-05 -8.299794e-06 4.4225024e-05 1.147594e-05 -3.2091245e-06
6.553167e-06 0.00013926745 2.0080994e-05 -2.2602162e-05 2.1839063e-05 2.5468804e-05 6.8703106e-05 8.626143e-06
1.6546501e-06 -1.3655486e-05 -1.8155188e-05 -3.0318977e-05 1.7970548e-05 0.00012798746 -2.3314604e-05 1.4472509e-05
-1.6610724e-05 6.5959066e-05 2.5436337e-05 1.7658112e-06 0.00026239225 -2.4380064e-05 7.4388486e-06 -1.4567775e-05
2.265133e-07 1.0640844e-05 -3.9467097e-05 -3.0284376e-05 1.2566846e-05 1.176045e-05 4.993468e-05 9.116666e-06
1.344872e-05 -3.0268839e-05 8.192394e-06 -2.8396322e-05 1.3088639e-05 7.640494e-06 1.2530713e-05 -9.00406e-06
-2.0650434e-05 2.5324723e-06 5.9088597e-06 -3.3976103e-05 -6.0161383e-06 -3.436012e-05 -7.7519135e-06 -5.3925323e-06
9.419102e-06 -2.471189e-06 -1.6513224e-05 -1.2736073e-05 -5.417211e-05 -2.7497526e-05 -8.698048e-06 -9.343308e-06
-7.798527e-06 4.257191e-06 -1.894467e-05 8.95438e-06 1.981275e-05 1.2363669e-06 -5.346854e-06 -8.264053e-06
-1.0912029e-05 4.8982383e-06 -1.5275544e-05 -3.0638737e-05 -2.6288993e-05 3.8176484e-05 2.182575e-05 1.191569e-05
5.8960293e-05 8.548041e-06 -1.6860016e-05 2.4397195e-05 2.2472127e-06 6.344724e-05 -1.2435602e-05 2.8306545e-06
-2.0715912e-05 -5.8289865e-05 -6.2799427e-06 2.0009543e-06 -1.19075285e-05 5.3949818e-05 9.694031e-07 4.624025e-05
-1.2757886e-05 1.35567925e-05 1.4603786e-05 2.564499e-05 1.11404715e-05 -6.2939707e-06 -1.8525e-05 -3.0861826e-05
1.7668604e-05 -3.9273018e-05 1.2161456e-05 -1.4223156e-05 3.9085376e-06 -2.0349114e-05 -1.017973e-05 -2.0456187e-06
3.1040105e-05 1.9566896e-05 4.083669e-06 -3.168443e-06 1.0722087e-05 3.6405445e-06 -3.3780768e-06 2.2262257e-05
-1.7232915e-06 4.2057287e-05 -2.1091699e-05 2.4538622e-06 5.5249475e-06 2.2619788e-05 2.0026495e-05 -5.9922557e-05
-2.4274168e-05 2.3686915e-05 -9.684542e-06 2.447784e-05 -3.9122388e-06 1.5263322e-05 1.312303e-05 -1.2136111e-05
-1.8137118e-05 3.698328e-05 6.132254e-06 2.9710665e-05 -2.103912e-05 -5.459833e-07 4.194835e-07 -5.9960417e-05
-1.4163989e-05 -9.25946e-06 -5.486362e-06 -1.7957755e-05 1.9518846e-05 8.967455e-05 3.3331748e-05 -1.225435e-06
2.433198e-05 -6.5629492e-06 0.00010675026 5.3012456e-05 2.7703747e-06 2.4743964e-05 -3.2360884e-05 -1.1277789e-06
2.7158829e-05 -1.44878595e-05 -2.675068e-05 -2.895202e-05 2.1467717e-05 4.4163804e-05 2.1073682e-05 5.494264e-06
-1.3399797e-05 2.931422e-05 -1.2314443e-05 6.5888753e-06 -7.1222166e-05 3.6704834e-05 2.0461448e-07 2.2805722e-05
1.2581542e-05 1.1186062e-05 4.0592986e-06 -4.1019302e-05 -1.9699452e-05 3.1904012e-05 -2.3767661e-05 -1.0732288e-05
2.231401e-05 7.7472505e-06 3.0170544e-05 -8.709234e-06 3.4230005e-05 -4.7596222e-05 1.674734e-05 -1.927025e-05
-2.783389e-05 -1.8436933e-05 -2.376132e-05 2.0971978e-05 -4.824642e-06 -2.986901e-05 5.4971288e-06 -3.243604e-06
-2.4870345e-05 -1.35050595e-05 2.1811184e-07 3.4786746e-05 1.18959e-06 -1.29362e-05 6.383962e-05 2.2431617e-05
1.3199295e-05 -4.501045e-06 9.00312e-06 -1.974956e-06 -1.9771587e-05 -1.0142833e-05 -5.3933196e-05 8.903735e-06
0.0001184101 7.16558e-05 0.000122892 -9.4950854e-05 3.2789292e-05 -1.2229582e-05 3.2575146e-05 1.4704029e-05
-7.704466e-05 1.24526905e-05 1.4895022e-05 -1.4329695e-05 8.894807e-06 3.9557955e-05 1.2407614e-05 -4.15717e-05
00000000: c4ea 4237 133e 9337 1240 3437 d0ad 6c38
00000010: f1fc 1e39 647a 4938 9b67 09b7 2409 9637
00000020: 817d 8337 ae06 0eb7 b801 0f38 856b bdb6
00000030: 2db0 38b8 d12f 1937 3253 cd37 48e2 c8b5
00000040: a07f 0e36 c5d7 f637 9052 c237 efbd 0238
00000050: 0293 9d35 16b0 4136 2714 f3b7 72b2 d537
00000060: 5ddb fbb7 2c46 9b37 7810 6137 d94c c8b8
00000070: 583f 0bb7 427e 3938 c988 4037 575c 57b6
00000080: 47e3 db36 5208 1239 9b73 a837 c699 bdb7
00000090: 0833 b737 d7a5 d537 b314 9038 01b9 1037
000000a0: 5815 de35 de19 65b7 f84b 98b7 8255 feb7
000000b0: 75bf 9637 5f34 0639 bb93 c3b7 f4ce 7237
000000c0: 4257 8bb7 8153 8a38 1e60 d537 d000 ed35
000000d0: b191 8939 ca83 ccb7 399b f936 1e68 74b7
000000e0: 8037 7334 1486 3237 7989 25b8 340b feb7
000000f0: 31d6 5237 c04e 4537 f470 5138 c8f3 1837
00000100: d0a1 6137 d6e9 fdb7 1072 0937 a334 eeb7
00000110: 4797 5b37 ac2f 0037 013b 5237 2510 17b7
00000120: 783a adb7 8bf3 2936 b844 c636 9081 0eb8
00000130: 3cde c9b6 e61d 10b8 370e 02b7 80f1 b4b6
00000140: bc06 1e37 b4d6 25b6 e185 8ab7 04ad 55b7
00000150: dc36 63b8 7daa e6b7 d5ed 11b7 34c1 1cb7
00000160: 6bd6 02b7 fed8 8e36 5eeb 9eb7 c53a 1637
00000170: 8f33 a637 3ef1 a535 2069 b3b6 d6a5 0ab7
00000180: cf12 37b7 8c5b a436 fb23 80b7 1882 00b8
00000190: 2f87 dcb7 b01f 2038 7116 b737 80e9 4737
000001a0: 224c 7738 8e69 0f37 9c6e 8db7 94a8 cc37
000001b0: d2ce 1636 fa0e 8538 81a2 50b7 46f6 3d36
000001c0: 15c7 adb7 447c 74b8 4cb8 d2b6 2248 0636
000001d0: 72c6 47b7 2d48 6238 701c 8235 17f2 4138
000001e0: b40a 56b7 fb71 6337 c902 7537 3220 d737
000001f0: f6e7 3a37 cc30 d3b6 2266 9bb7 a271 01b8
00000200: 0a37 9437 15b9 24b8 0e09 4c37 fd9f 6eb7
00000210: 1526 8336 64b3 aab7 9cc9 2ab7 7647 09b6
00000220: 0f31 0238 9723 a437 7306 8936 70a1 54b6
00000230: 03e3 3337 1450 7436 ebb2 62b6 d5bf ba37
00000240: d84b e7b5 ab66 3038 14ee b0b7 08ad 2436
00000250: f062 b936 a0bf bd37 92fe a737 5b55 7bb8
00000260: 61a0 cbb7 43b3 c637 cb7a 22b7 c355 cd37
00000270: e045 83b6 bc09 8037 fc2a 5c37 339c 4bb7
00000280: 2a25 98b7 7f1e 1b38 a9c3 cd36 2b3b f937
00000290: 2b7d b0b7 b08f 12b5 6035 e134 027e 7bb8
000002a0: dfa1 6db7 1459 1bb7 7e17 b8b6 fca3 96b7
000002b0: 67bc a337 a80f bc38 b1cd 0b38 a079 a4b5
000002c0: 871c cc37 4e37 dcb6 1cdf df38 b159 5e38
000002d0: adea 3936 4291 cf37 3cbb 07b8 305e 97b5
000002e0: 24d3 e337 e210 73b7 a666 e0b7 fddd f2b7
000002f0: 9215 b437 863c 3938 63c7 b037 5e5b b836
00000300: b1cf 60b7 cfe7 f537 219a 4eb7 0216 dd36
00000310: 1c5d 95b8 84f3 1938 00b4 5b34 ea4e bf37
00000320: 5015 5337 c5ab 3b37 1c35 8836 240c 2cb8
00000330: 4040 a5b7 acd0 0538 aa60 c7b7 d30e 34b7
00000340: f92e bb37 30fa 0137 c016 fd37 e01d 12b7
00000350: 3092 0f38 0ea2 47b8 a47c 8c37 8ca6 a1b7
00000360: d37c e9b7 03a9 9ab7 0c53 c7b7 fbec af37
00000370: 5ce3 a1b6 368f fab7 fa73 b836 b1ac 59b6
00000380: a9a0 d0b7 ca93 62b7 2032 6a34 fce7 1138
00000390: 00aa 9f35 8e08 59b7 a3e1 8538 882b bc37
000003a0: 8a72 5d37 af07 97b6 1b0c 1737 7c89 04b6
000003b0: 29db a5b7 232b 2ab7 5436 62b8 4061 1537
000003c0: f052 f838 ea45 9638 92dc 0039 5a20 c7b8
000003d0: 3c87 0938 a82d 4db7 4ca1 0838 53b1 7637
000003e0: 0993 a1b8 e6eb 5037 a2e5 7937 9269 70b7
000003f0: e83a 1537 08eb 2538 4c2a 5037 465d 2eb8

layers.1.weight f4 [128, 256]
-0.035761144 0.044252496 0.12587948 -0.20451042 -0.020704333 0.07626848 0.022128398 0.17795476
0.021448566 0.09183895 -0.10722104 0.023138959 0.034883082 0.059064474 0.097863 0.07147009
0.00869362 0.087832466 -0.008386204 -0.042172275 0.19987312 0.14117214 -0.027557854 0.0067255693
0.03994627 0.005815846 0.014165186 -0.029093867 -0.116278954 0.01770905 0.0629169 0.10647853
-0.06583582 0.01180329 0.01840788 -0.05987528 0.09450854 -0.026514634 0.06027428 0.04812316
-0.10496715 -0.07620239 0.034729708 0.18209729 0.0121086 0.0620472 -0.19108708 0.07893862
-0.05516941 0.0019430432 -0.10452254 -0.00994737 0.10964367 0.017746076 -0.029861016 0.01855499
0.16990343 0.08191568 0.16709068 0.18442579 -0.04685321 -0.040232297 0.07266149 -0.079722255
0.21265295 -0.014571927 0.09610032 -0.11223659 0.017212125 0.0014762434 0.01055626 -0.026123505
-0.054449625 0.0028751497 0.04257744 -0.15353942 -0.012529076 -0.04837088 0.067900516 -0.01887109
0.038615126 0.10328871 0.17359562 0.030900113 -0.0049126814 0.042275574 0.06534139 0.04093547
0.025512977 0.05823987 0.25681224 0.24561185 0.023767972 0.02553242 -0.0028625857 0.048833143
0.037101045 0.018959694 -0.021104291 0.09645622 -0.07005122 0.106490254 0.00565015 0.0067824633
-0.057192117 0.14781025 -0.046708986 0.049239416 -0.02927826 0.036318295 -0.06897629 -0.035046913
-0.007146951 0.21564946 -0.04516332 0.0043226373 -0.14623891 -0.11793074 -0.110206895 0.22569406
-0.18323836 -0.047831677 0.040627465 -0.12018317 0.09362782 -0.038971096 -0.09405929 -0.14930429
0.08056241 -0.018141301 0.034610197 0.17011964 -0.05299114 0.032545432 -0.15451568 0.115938455
0.09769982 -0.07604892 -0.09515032 0.120923266 0.156636 0.16151647 0.10889892 -0.045013838
0.07991775 -0.026298385 0.11362487 0.08469373 -0.027473854 -0.01740018 -0.116017625 0.14844072
0.24219719 -0.12108104 0.080446385 -0.035609797 0.12686643 0.011791779 0.013652376 0.14711425
-0.13648716 -0.026858503 0.033847425 0.018705629 -0.023164773 0.1200017 0.1626057 0.0005148309
-0.1301992 0.3075887 -0.021754384 0.15253818 -0.013130029 0.0032583901 -0.012352425 0.031801663
0.06333009 -0.03149176 0.059246227 0.08683468 -0.041291375 0.055695154 0.07410066 -0.12055592
0.080513485 0.07128793 0.052385125 0.036052186 -0.01954027 0.13099906 0.031495586 0.010026869
-0.1586442 0.10470189 -0.008369311 -0.08003841 0.15466145 0.035883572 0.23114072 0.04183139
0.053848226 -0.07783983 0.081524335 0.06874644 -0.09477583 0.0593302 0.0130775785 0.20229262
-0.0021048568 0.045525562 0.062048808 0.17738366 0.009686001 0.062064275 0.00088436203 0.044815376
0.050057784 -0.12680209 -0.037278183 0.1444085 0.041315228 -0.14148332 0.012745581 0.12635717
0.18259797 0.09873812 0.06251496 -0.013269547 0.09166975 0.14941238 0.17930013 0.067092165
-0.015824616 0.010719618 0.1401368 0.24388503 -0.10541624 0.08998294 0.05695454 0.12068757
0.16732669 0.021426048 -0.20311116 0.121930644 0.026730573 0.057512466 -0.10628923 0.18764292
-0.09446171 0.070375696 0.18110687 -0.043312237 0.04167933 0.024242625 -0.014575127 0.17571726
00000000: 477a 12bd 1b42 353d 8de6 003e 2e6b 51be
00000010: 229c a9bc a632 9c3d 9d46 b53c c639 363e
00000020: e7b4 af3c 0f16 bc3d b496 dbbd ea8d bd3c
00000030: 90e1 0e3d 97ed 713d 666c c83d e95e 923d
00000040: af6f 0e3c 82e1 b33d 4a66 09bc d6bc 2cbd
00000050: 8aab 4c3e 6e8f 103e 02c1 e1bc 2a62 dc3b
00000060: b39e 233d da92 be3b 1915 683c 4356 eebc
00000070: a923 eebd 9212 913c 93da 803d 6a11 da3d
00000080: eed4 86bd 9662 413c 1fcc 963c c83f 75bd
00000090: b28d c13d 3835 d9bc 2ae2 763d ca1c 453d
000000a0: 04f9 d6bd 0010 9cbd bd40 0e3d b677 3a3e
000000b0: 2663 463c 3425 7e3d 55ac 43be 92aa a13d
000000c0: 52f9 61bd b6ad fe3a ea0f d6bd 4bfa 22bc
000000d0: dc8c e03d 3860 913c 179f f4bc a200 983c
000000e0: 2afb 2d3e 68c3 a73d d219 2b3e 1dda 3c3e
000000f0: 27e9 3fbd 9fca 24bd 8ccf 943d 6c45 a3bd
00000100: b2c1 593e 17bf 6ebc 3fd0 c43d 4cdc e5bd
00000110: 7100 8d3c 827e c13a 2af4 2c3c f600 d6bc
00000120: 9206 5fbd 026d 3c3b af65 2e3d 7039 1dbe
00000130: c146 4dbc 8b20 46bd 6d0f 8b3d 8b97 9abc
00000140: e52a 1e3d 0889 d33d 0dc3 313e 3c22 fd3c
00000150: 8ffa a0bb 2729 2d3d b5d1 853d f4ab 273d
00000160: 9700 d13c ee8c 6e3d e57c 833e ac81 7b3e
00000170: 0db5 c23c 5e29 d13c 389a 3bbb 4305 483d
00000180: 44f7 173d 5c51 9b3c e8e2 acbc d78a c53d
00000190: 0477 8fbd 9017 da3d e524 b93b 6d3f de3b
000001a0: 4842 6abd 925b 173e ec51 3fbd 45af 493d
000001b0: f6d8 efbc 7ec2 143d 7143 8dbd 5a8d 0fbd
000001c0: f830 eabb 36d3 5c3e 2cfd 38bd e9a4 8d3b
000001d0: a7bf 15be ac85 f1bd 27b4 e1bd 581c 673e
000001e0: d6a2 3bbe 26eb 43bd fc68 263d 9822 f6bd
000001f0: f1bf bf3d 28a0 1fbd 28a2 c0bd 39e3 18be
00000200: e8fd a43d 119d 94bc 6cc3 0d3d d833 2e3e
00000210: 3d0d 59bd 5c4e 053d 5c39 1ebe 2471 ed3d
00000220: d816 c83d 89bf 9bbd 2cde c2bd 9ea6 f73d
00000230: 3065 203e 9364 253e 6606 df3d 6e60 38bd
00000240: ebab a33d b66f d7bc 28b4 e83d e873 ad3d
00000250: d910 e1bc d38a 8ebc a69a edbd d800 183e
00000260: 8a02 783e 56f9 f7bd 13c1 a43d 94db 11bd
00000270: 46e9 013e 4e32 413c 37ae 5f3c 1ea5 163e
00000280: 4ac3 0bbe 5d06 dcbc 99a3 0a3d 8c3c 993c
00000290: 0dc4 bdbc 74c3 f53d 1c82 263e b8f5 063a
000002a0: f052 05be 447c 9d3e 4036 b2bc f832 1c3e
000002b0: 551f 57bc b78a 553b d361 4abc 7642 023d
000002c0: 35b3 813d 81fd 00bd 2cac 723d 61d6 b13d
000002d0: 2521 29bd 9a20 643d 16c2 973d 06e6 f6bd
000002e0: 41e4 a43d 68ff 913d c991 563d 75ab 133d
000002f0: eb12 a0bc 9e24 063e 8401 013d bd47 243c
00000300: a073 22be f26d d63d 6f1f 09bc 2eeb a3bd
00000310: 925f 1e3e a7fa 123d 27b0 6c3e 6457 2b3d
00000320: f58f 5c3d 7d6a 9fbd 3bf6 a63d efca 8c3d
00000330: d519 c2bd 3904 733d 5743 563c cc25 4f3e
00000340: a3f1 09bb 0379 3a3d e426 7e3d 10a4 353e
00000350: 08b2 1e3c 1c37 7e3d 88d4 673a 5490 373d
00000360: 6409 4d3d 68d8 01be 02b1 18bd d2df 133e
00000370: 283a 293d 01e1 10be d7d2 503c c663 013e
00000380: f6fa 3a3e 3637 ca3d d807 803d 8468 59bc
00000390: 5abd bb3d 8fff 183e 749a 373e 9e67 893d
000003a0: a0a2 81bc 56a1 2f3c 0580 0f3e ffbc 793e
000003b0: 78e4 d7bd fa48 b83d 2a49 693d 0b2b f73d
000003c0: b057 2b3e ae85 af3c 5ffc 4fbe c6b6 f93d
000003d0: 13fa da3c 3192 6b3d 2bae d9bd 7725 403e
000003e0: 2475 c1bd 2221 903d 1474 393e 2c68 31bd
000003f0: f2b7 2a3d 7898 c63c 83cc 6ebc 3aef 333e

layers.1.bias f4 [128]
2.0890257e-05 -1.1776205e-05 -4.8553648e-06 2.2115266e-05 -3.0459985e-05 1.3314093e-08 3.5514815e-05 -2.1775668e-06
4.000785e-05 -2.7494607e-05 1.572369e-05 -1.14168615e-05 1.4664354e-05 -1.5243314e-05 -4.722565e-06 4.069436e-06
1.3816763e-05 2.3439003e-05 3.1028343e-05 -9.741816e-07 1.6346597e-05 2.439478e-05 4.100542e-06 -1.4499399e-05
1.0191605e-05 -1.7468421e-05 -1.8129827e-05 -5.503532e-05 1.2003495e-05 3.297955e-05 3.6891422e-05 1.8424373e-05
5.073275e-06 4.4421977e-05 -9.853974e-06 2.235944e-05 1.0710313e-05 -4.0068553e-06 1.4823576e-05 -1.7661223e-05
1.2178149e-05 -1.6335996e-05 -9.036721e-06 -8.270875e-06 -4.856329e-05 1.2101842e-05 -3.9030856e-06 1.9276556e-05
5.2552023e-06 1.1779398e-05 -2.2064838e-05 -2.0777341e-05 -1.6719276e-05 -6.847263e-07 -1.1280328e-05 -1.2282488e-05
3.5448447e-06 1.638269e-05 -2.4634592e-05 -4.19219e-05 1.9806757e-06 2.5328007e-05 -6.026624e-05 8.2895085e-06
1.3086713e-05 3.8620605e-05 9.330248e-06 -3.497589e-06 2.8952662e-05 -4.097834e-06 1.6272053e-05 1.9836189e-05
-2.4934248e-05 -8.238115e-06 1.8447226e-05 -9.477596e-06 -1.037688e-06 8.097925e-08 -1.2514043e-05 8.632638e-06
2.5599016e-05 5.926322e-06 -2.1605869e-05 1.173114e-06 1.742469e-05 -8.3374016e-07 1.0810619e-05 -5.028963e-06
-7.122308e-05 -2.3082053e-05 -3.630723e-05 -8.046591e-06 -9.099285e-06 1.155286e-05 4.2502143e-05 1.8877152e-05
4.815299e-06 1.2914936e-05 2.1698144e-05 -2.8985123e-06 3.675885e-05 1.28528845e-05 1.12622265e-05 2.2044836e-05
-1.2821984e-05 8.336704e-06 -2.3746306e-05 -3.550823e-05 9.711923e-06 1.6368835e-05 1.7913411e-05 -2.8705667e-06
1.0862423e-05 2.0931295e-05 -7.377548e-06 -2.8617804e-05 4.1311587e-06 -1.04486635e-05 9.9049075e-06 -1.0714175e-05
8.134378e-06 6.0770646e-05 1.4049487e-05 -5.8913524e-06 5.9547237e-06 9.812677e-06 7.887806e-06 1.4179931e-05
00000000: 7c3d af37 6a92 45b7 44eb a2b6 2c84 b937
00000010: 5284 ffb7 00bc 6432 bef5 1438 5022 12b6
00000020: 1ace 2738 38a4 e6b7 5ee6 8337 0c8b 3fb7
00000030: ec06 7637 89bd 7fb7 8676 9eb6 308c 8836
00000040: 8cce 6737 e09e c437 6e24 0238 a0c0 82b5
00000050: 0d20 8937 64a3 cc37 6397 8936 7242 73b7
00000060: 9cfc 2a37 2689 92b7 8215 98b7 bad5 66b8
00000070: 9e62 4937 8653 0a38 ddbb 1a38 0a8e 9a37
00000080: 1a3b aa36 bc51 3a38 7f52 25b7 8890 bb37
00000090: 72b0 3337 a072 86b6 c6b2 7837 3027 94b7
000000a0: c050 4c37 4909 89b7 6c9c 17b7 23c3 0ab7
000000b0: 70b0 4bb8 0409 4b37 40f7 82b6 17b4 a137
000000c0: d855 b036 21a0 4537 e117 b9b7 004b aeb7
000000d0: 5f40 8cb7 08ce 37b5 a440 3db7 e210 4eb7
000000e0: f8e3 6d36 8f6d 8937 62a6 ceb7 4cd5 2fb8
000000f0: c0eb 0436 7b77 d437 62c6 7cb8 2b13 0b37
00000100: 018f 5b37 8ffc 2138 1c89 1c37 1fb8 6ab6
00000110: 5edf f237 2080 89b6 f87f 8837 e465 a637
00000120: e429 d1b7 6f36 0ab7 1ebf 9a37 f701 1fb7
00000130: b046 8bb5 d0e6 ad33 68f3 51b7 e6d4 1037
00000140: 78bd d637 b8da c636 403e b5b7 e473 9d35
00000150: 3d2b 9237 30ce 5fb5 415f 3537 77be a8b6
00000160: 9a5d 95b8 55a0 c1b7 9748 18b8 d8ff 06b7
00000170: 22a9 18b7 28d3 4137 5444 3238 605a 9e37
00000180: 1a93 a136 3aad 5837 6904 b637 1084 42b6
00000190: 842d 1a38 b8a2 5737 e5f2 3c37 edec b837
000001a0: 001e 57b7 dfdd 0b37 ce32 c7b7 acee 14b8
000001b0: 64f0 2237 ce4f 8937 c244 9637 f6a3 40b6
000001c0: c03d 3637 9d95 af37 a88c f7b6 4410 f0b7
000001d0: 629e 8a36 ab4c 2fb7 412d 2637 08c1 33b7
000001e0: e378 0837 fce3 7e38 16b6 6b37 55ae c5b6
000001f0: b0ce c736 20a1 2437 de55 0437 57e6 6d37

layers.2.weight f4 [64, 128]
-0.038977418 -0.11090097 0.08106714 0.068491764 -0.15770233 -0.11443657 -0.097790405 -0.087055825
-0.01360729 0.0775385 0.028054185 -0.19785687 -0.09651399 0.1915541 -0.21137647 -0.24506393
-0.1635162 0.22910799 -0.09235056 -0.108191736 -0.0539783 -0.15706713 0.40684605 0.24256617
-0.22110334 0.03708637 -0.12851647 -0.062299028 -0.13181868 0.17546645 0.08774402 0.009967801
-0.20618987 -0.14331996 -0.2615497 0.00784835 -0.06646109 0.12097761 -0.0023826947 -0.060119517
0.028441671 -0.2609181 -0.22283769 0.040918875 0.025281148 0.20879585 -0.06772293 -0.117287025
-0.08330648 0.1229358 0.026850175 -0.16451831 -0.026910897 -0.0028483886 -0.11549264 -0.17422867
-0.0028418577 0.19621271 -0.092976205 0.0638683 -0.012888616 -0.16873728 -0.085831344 -0.13678683
0.32560706 0.05026745 0.0640401 0.017423581 -0.1521853 0.25954777 0.071203396 -0.108025424
-0.20564274 -0.030326486 0.18499823 -0.25103897 0.063333645 -0.005167141 0.029366339 0.03995076
0.2790799 -0.0908694 0.21260142 -0.049068853 -0.14354137 -0.35591424 -0.25630203 0.05230999
-0.21499312 0.08398354 -0.06973841 0.042204387 0.11608115 0.054971725 -0.12488795 -0.17157647
0.20999423 -0.24597985 -0.045475934 0.30595303 0.06309919 -0.1419479 -0.09174815 0.020703001
-0.081026696 0.2304618 0.030945592 -0.017880412 0.26142538 0.1670247 -0.05789998 -0.15704276
-0.036504865 -0.18786597 0.11333594 0.079044625 -0.15563744 -0.20255685 -0.0991706 -0.13416792
-0.00282362 -0.19628468 0.14036904 -0.1521244 -0.069182284 0.13379498 -0.07826481 -0.0768843
0.14183632 -0.06850324 -0.11102518 0.11106252 0.03257006 0.19000529 0.02636934 0.030087609
0.061896287 0.098503694 0.13279405 0.08361888 0.03481587 -0.07417295 -0.051297218 0.098304346
0.13173738 -0.173771 0.060861725 -0.18408144 0.026033659 -0.31001535 -0.09880384 0.02770298
0.056466565 0.15468149 -0.15826927 -0.007844885 0.06879987 -0.038021304 -0.02737001 0.086441524
0.28337923 0.12698892 0.096278384 -0.25947097 -0.037130993 -0.059093125 0.00026807468 0.17872733
-0.29611155 -0.02726339 -0.16364264 -0.0066829873 0.015604181 -0.009038731 -0.045695562 0.06153967
-0.30450356 -0.06780734 -0.0080387825 0.18698539 -0.014906991 -0.062397324 -0.029928803 -0.03034782
0.005184658 0.10698775 -0.009152085 -0.043001626 -0.14839394 -0.0041200058 -0.4124667 0.11679283
0.19794428 -0.02230921 0.06062994 -0.23200038 -0.18531337 -0.21379358 0.048380904 -0.025707934
0.0903123 -0.020854052 -0.1016542 0.06658611 -0.021947855 -0.17866448 0.104318246 -0.04602206
-0.081047066 -0.027093932 0.12361738 -0.021170303 -0.004911066 -0.07605046 0.122948244 -0.026788384
0.04796513 0.08699148 -0.08937845 0.047294803 0.09335296 -0.099494725 0.009365672 -0.204781
0.22162828 0.024045143 0.053610083 0.06485118 0.0048509957 0.38345987 -0.12162396 -0.14945416
0.09111328 -0.08178055 0.013302544 0.16217865 0.12981308 0.019141588 -0.0041512204 -0.04089971
-0.13074338 0.036029384 0.04903832 0.08429102 0.0035659769 0.024451178 -0.072635695 -0.09013942
-0.22908255 -0.20196804 -0.16366836 0.03500355 0.023232602 -0.3003863 0.0929468 0.2107626
00000000: c9a6 1fbd 0c20 e3bd 8706 a63d 6945 8c3d
00000010: b87c 21be b85d eabd 5646 c8bd 534a b2bd
00000020: 1cf1 5ebc 81cc 9e3d e4d1 e53c fe9a 4abe
00000030: 20a9 c5bd c226 443e 1373 58be 0af2 7abe
00000040: ca70 27be 499b 6a3e 4a22 bdbd a193 ddbd
00000050: 5a18 5dbd 35d6 20be 204e d03e 4463 783e
00000060: ea68 62be e1e7 173d d299 03be 442d 7fbd
00000070: 7afb 06be 7aad 333e 23b3 b33d fd4f 233c
00000080: 7023 53be 78c2 12be d8e9 85be 5e96 003c
00000090: c11c 88bd 1cc3 f73d fc26 1cbb e23f 76bd
000000a0: 82fe e83c 0f97 85be 902f 64be 8d9a 273d
000000b0: 691a cf3c 94ce 553e 52b2 8abd 2e34 f0bd
000000c0: 969c aabd c4c5 fb3d e6f4 db3c 7d77 28be
000000d0: 3e74 dcbc 08ac 3abb 6887 ecbd 0069 32be
000000e0: 763e 3abb fceb 483e 4f6a bebd 62cd 823d
000000f0: c62a 53bc 77c9 2cbe 58c8 afbd d911 0cbe
00000100: f8b5 a63e 3ee5 4d3d 7527 833d e6bb 8e3c
00000110: 77d6 1bbe 72e3 843e 16d3 913d 6f3c ddbd
00000120: 0394 52be 406f f8bc 2d70 3d3e 2e88 80be
00000130: 12b5 813d 1f51 a9bb ad91 f03c 68a3 233d
00000140: 90e3 8e3e bc19 babd 30b4 593e 6cfc 48bd
00000150: 82fc 12be 643a b6be 053a 83be 0043 563d
00000160: 2827 5cbe 90ff ab3d 03d3 8ebd 82de 2c3d
00000170: f4bb ed3d 082a 613d 41c5 ffbd beb1 2fbe
00000180: ba08 573e 24e2 7bbe f944 3abd e0a5 9c3e
00000190: 263a 813d ca5a 11be 74e6 bbbd 5799 a93c
000001a0: 53f1 a5bd 2efe 6b3e 9c81 fd3c f179 92bc
000001b0: 8cd9 853e 8608 2b3e 8828 6dbd d1cf 20be
000001c0: 2086 15bd f05f 40be ac1c e83d 26e2 a13d
000001d0: 6c5f 1fbe 106b 4fbe f519 cbbd 5163 09be
000001e0: 7c0c 39bb dafe 48be e7bc 0f3e 80c6 1bbe
000001f0: 71af 8dbd 8d01 093e 4d49 a0bd 8475 9dbd
00000200: 8a3d 113e 6d4b 8cbd 2b61 e3bd bf74 e33d
00000210: 2f68 053d bf90 423e 8404 d83c 4a7a f63c
00000220: f686 7d3d 4ebc c93d 2afb 073e 6040 ab3d
00000230: 169b 0e3d fde7 97bd 081d 52bd ca53 c93d
00000240: 2ae6 063e 06f1 31be 254a 793d d87f 3cbe
00000250: 8a44 d53c 55ba 9ebe ab59 cabd 5cf1 e23c
00000260: 7c49 673d d364 1e3e 5711 22be d587 00bc
00000270: f2e6 8c3d 3abc 1bbd 1237 e0bc 4108 b13d
00000280: 1517 913e 6209 023e 9a2d c53d 61d9 84be
00000290: ab16 18bd a20b 72bd 608c 8c39 4c04 373e
000002a0: ef9b 97be 7957 dfbc f091 27be f6fc dabb
000002b0: aea8 7f3c 3017 14bc 452b 3bbd 0511 7c3d
000002c0: e4e7 9bbe 93de 8abd 19b5 03bc 1979 3f3e
000002d0: 743c 74bc 5694 7fbd 402d f5bc fe9b f8bc
000002e0: 10e4 a93b 651c db3d a0f2 15bc 7922 30bd
000002f0: 95f4 17be 1d01 87bb d62e d3be 1431 ef3d
00000300: e8b1 4a3e cec1 b6bc 1a57 783d 8291 6dbe
00000310: cac2 3dbe b4ec 5abe 0e2b 463d 7299 d2bc
00000320: a8f5 b83d 1ed6 aabc 1430 d0bd 4c5e 883d
00000330: fdcb b3bc d2f3 36be cea4 d53d a181 3cbd
00000340: 01fc a5bd 18f4 ddbc 1c2b fd3d 586d adbc
00000350: 02ed a0bb 58c0 9bbd 4acc fb3d 5073 dbbc
00000360: 1677 443d 9728 b23d 0c0c b7bd 32b8 413d
00000370: d62f bf3d e4c3 cbbd 7a72 193c 1cb2 51be
00000380: 86f2 623e 52fa c43c 3f96 5b3d b2d0 843d
00000390: 1af5 9e3b da54 c43e fc15 f9bd 830a 19be
000003a0: 9999 ba3d 907c a7bd eaf2 593c 2912 263e
000003b0: b8ed 043e d2ce 9c3c f606 88bb 7486 27bd
000003c0: 98e1 05be 8c93 133d 68dc 483d c5a0 ac3d
000003d0: 2ab3 693b d64d c83c 06c2 94bd 049b b8bd
000003e0: 9e94 6abe b6d0 4ebe ae98 27be e25f 0f3d
000003f0: 4c52 be3c 3ccc 99be e45a be3d 27d2 573e

layers.2.bias f4 [64]
-5.9068107e-06 1.7767234e-05 -1.39522e-05 -3.1385247e-05 -1.0957559e-05 -1.7194367e-05 5.2593234e-05 -8.103057e-05
-1.7112017e-05 4.100946e-05 2.8649438e-06 1.8032571e-05 3.2666783e-05 -4.3474865e-05 -6.656407e-05 -5.817067e-06
1.0427777e-05 -2.0360634e-05 5.6310546e-05 -1.44110945e-05 -4.6591977e-06 -2.6177568e-06 6.428466e-05 -2.4465604e-05
-9.735442e-06 -1.5821153e-05 4.738952e-05 -3.1741758e-05 6.728821e-05 -1.30996e-05 2.4245957e-05 2.9844283e-05
-3.7732923e-05 2.358505e-05 3.1011125e-05 -2.3025861e-05 2.8816861e-05 1.9268991e-06 -2.4517994e-06 -8.106609e-05
-5.204274e-06 3.2764245e-05 -2.1976137e-05 5.1280844e-05 1.3710856e-05 -3.0296189e-05 -1.0745243e-06 -1.38281075e-05
-7.2191484e-05 -1.5719415e-05 1.2317042e-05 -5.629232e-06 -2.9352945e-05 3.894045e-05 -2.7868762e-05 1.689242e-05
-3.223709e-06 3.147577e-05 7.812536e-06 4.9200153e-06 -4.338526e-06 8.8711e-06 7.647728e-06 1.5768834e-05
00000000: 1e33 c6b6 d80a 9537 3e14 6ab7 a7a3 03b8
00000010: 5cd6 37b7 9f3c 90b7 8e97 5c38 f5ee a9b8
00000020: c78b 8fb7 9301 2c38 5c43 4036 a744 9737
00000030: b103 0938 c858 36b8 5098 8bb8 3a30 c3b6
00000040: f6f2 2e37 21cc aab7 fd2e 6c38 2ec7 71b7
00000050: 3456 9cb6 b8ac 2fb6 90d0 8638 7c3b cdb7
00000060: 6855 23b7 abb7 84b7 1cc4 4638 7422 05b8
00000070: 151d 8d38 5bc6 5bb7 cc63 cb37 1c5a fa37
00000080: 6b43 1eb8 82d8 c537 f111 0238 a927 c1b7
00000090: bdbb f137 e04f 0136 9889 24b6 0702 aab8
000000a0: 60a0 aeb6 576c 0938 6559 b8b7 6316 5738
000000b0: ae07 6637 9224 feb7 6038 90b5 45ff 67b7
000000c0: 8265 97b8 30dd 83b7 4ba5 4e37 bce2 bcb6
000000d0: f83a f6b7 fd53 2338 b6c7 e9b7 32b4 8d37
000000e0: e656 58b6 da04 0438 9612 0337 9c16 a536
000000f0: a893 91b6 16d5 1437 be4e 0037 5047 8437

layers.3.weight f4 [11, 64]
-0.4463536 -0.46097255 -0.059369244 -0.16451755 -0.12916157 -0.37188673 -0.084617466 0.17067412
0.07716724 -0.39867246 -0.14498688 0.2374636 0.013933801 -0.08317429 -0.6122028 0.033950306
0.09957783 0.23939681 -1.0573931 0.04216202 0.09878375 -0.32656062 0.08589943 0.09746352
0.035309985 0.050268456 0.05458631 -0.26795533 0.13188745 -0.02421199 -0.08558025 0.08215682
0.099538684 -0.47416854 0.16768831 0.09712584 0.11199071 0.2449086 0.12722707 0.22325142
0.14529562 0.044056498 0.08877127 0.11257258 -0.06517646 0.17359476 -0.2345694 0.0629817
0.11630355 -0.44797015 0.028089564 -0.1083853 0.1597987 -0.59773356 0.12675668 0.06875213
0.25120306 -0.104536936 0.07152197 -0.031061124 0.11029576 0.17544201 0.19058587 0.006849875
0.14801382 -0.107659414 0.030189889 -0.09138505 -0.07745895 -0.18571265 0.006606749 0.14746429
-0.17823493 -0.06677007 0.1500996 -0.5041894 0.040231533 -0.016776629 -0.19982353 0.052192748
0.08399388 0.037738267 0.17658798 0.014177068 -0.020322993 0.18348837 0.10445762 0.10574028
0.0055016745 0.010182128 -0.10611766 0.13304366 0.13370615 -0.03006838 -0.24102348 0.07154285
-0.5268954 0.121108815 0.17264356 -0.38922042 0.055491865 -0.50832456 0.15084863 -0.31233817
-0.0045589423 -0.4670484 -0.08839459 -0.2154857 -0.017889714 0.16938508 0.15847401 -0.09801043
0.15739113 0.07802033 0.07338397 0.3268996 0.15766451 -0.1411408 0.09972701 -0.06320004
0.2295425 -0.065814495 0.035140786 -0.3336298 -0.32395947 0.1931906 0.18431696 -0.17768747
0.14098361 -0.30187583 -0.22712788 0.31872997 -0.24629787 0.064160295 -0.20100904 0.22352558
-0.38480568 -0.31970417 0.13790512 0.21863353 -1.1996089 -0.09338912 -0.42855865 0.10006325
-0.3192554 0.26144087 0.19915144 -0.80826104 0.1668007 -0.50759894 -0.925553 -1.2212797
0.1346896 -0.37556022 0.116177775 0.22528853 0.18461774 -0.2052001 -0.013244868 -0.74495745
-0.014352901 0.17576486 -0.73055536 -0.115583956 -0.40135062 0.14164838 0.19148341 0.26251546
-0.08220823 0.10700996 -0.26205835 -0.3071616 0.14987876 0.20244709 -0.14698325 0.13336207
0.17491384 -0.010400819 0.061240643 -0.17984211 0.19788459 -0.37234244 -0.6141507 0.11765708
-0.24667346 0.027151104 0.106370345 -0.2006355 0.05859559 -0.52459097 0.24104947 0.022443315
-0.025361747 0.22002283 0.124711454 0.1734068 -0.11511999 0.04543683 0.21857314 0.15775378
-0.041430194 0.13621922 0.0024327682 0.13547383 -0.040162414 -0.22771624 0.07871468 -0.011840617
-0.040285923 0.12581393 0.087313145 0.26651424 0.17125137 0.11123614 0.008005195 0.054262802
0.062259115 -0.044549793 0.105932996 0.09775063 0.12543055 0.22035633 -0.24472728 -0.009109358
0.05443208 0.0315854 0.1338421 0.05977894 -0.094542764 -0.008862339 0.12312095 0.14761214
-0.1049536 -0.013241736 0.06240952 -0.08773023 -0.012021541 0.1336981 0.026003214 0.1118976
0.11543782 0.09128607 -0.076828726 0.10285811 0.05542126 0.103607774 -0.017603261 -0.011033747
0.21741116 -0.06132871 0.017808331 -0.03898335 -0.022905394 0.118451826 0.15755507 -0.15479827
00000000: 7688 e4be 9804 ecbe 2a2d 73bd 4a77 28be
00000010: ee42 04be f067 bebe ec4b adbd 32c5 2e3e
00000020: dc09 9e3d cc1e ccbe 7177 14be a829 733e
00000030: 994a 643c 4857 aabd 53b9 1cbf 7a0f 0b3d
00000040: 76ef cb3d 7024 753e a858 87bf 15b2 2c3d
00000050: 224f ca3d f432 a7be 0aec af3d f49a c73d
00000060: 34a1 103d 4ce6 4d3d e595 5f3d 7131 89be
00000070: 810d 073e 3958 c6bc b344 afbd d641 a83d
00000080: f0da cb3d 38c6 f2be 7cb6 2b3e eae9 c63d
00000090: 635b e53d 52c9 7a3e d047 023e 059c 643e
000000a0: 60c8 143e 9674 343d b6cd b53d 748c e63d
000000b0: 3c7b 85bd d3c2 313e f632 70be 8dfc 803d
000000c0: 8e30 ee3d 585c e5be 161c e63c 1df9 ddbd
000000d0: 45a2 233e 1105 19bf 81cc 013e ebcd 8c3d
000000e0: b09d 803e 7617 d6bd 1c7a 923d e673 febc
000000f0: bee2 e13d 12a7 333e f128 433e eb74 e03b
00000100: ef90 173e 8a7c dcbd c950 f73c 1628 bbbd
00000110: cca2 9ebd 752b 3ebe 6d7d d83b e100 173e
00000120: 3883 36be bfbe 88bd b6b3 193e 8e12 01bf
00000130: d2c9 243d 246f 89bc 8a9e 4cbe 10c8 553d
00000140: fc04 ac3d 7193 1a3d 7bd3 343e ef46 683c
00000150: 687c a6bc 60e4 3b3e e0ed d53d 5c8e d83d
00000160: 6447 b43b f1d2 263c 3754 d9bd 993c 083e
00000170: 44ea 083e f751 f6bc dcce 76be 0f85 923d
00000180: 9ee2 06bf e607 f83d 79c9 303e e647 c7be
00000190: 704b 633d 8f21 02bf 1078 1a3e caea 9fbe
000001a0: 2e63 95bb f820 efbe 3908 b5bd 49a8 5cbe
000001b0: 738d 92bc 4873 2d3e 0347 223e b1b9 c8bd
000001c0: 242b 213e 1fc9 9f3d 564a 963d 625f a73e
000001d0: ce72 213e 3787 10be ad3d cc3d 066f 81bd
000001e0: 300d 6b3e c0c9 86bd c9ef 0f3d 86d1 aabe
000001f0: 04de a5be c2d3 453e 96bd 3c3e b4f3 35be
00000200: 025e 103e 788f 9abe 3694 68be 9330 a33e
00000210: 8235 7cbe 7966 833d 50d5 4dbe e4e3 643e
00000220: 4005 c5be 44b0 a3be 0037 0d3e 78e1 5f3e
00000230: c98c 99bf cc42 bfbd 0a6c dbbe f6ed cc3d
00000240: 7275 a3be 94db 853e 5bee 4b3e 32ea 4ebf
00000250: cdcd 2a3e 01f2 01bf 0bf1 6cbf e552 9cbf
00000260: 12ec 093e 6e49 c0be 9dee ed3d 09b2 663e
00000270: 6f0c 3d3e fa1f 52be 0101 59bc 88b5 3ebf
00000280: 6e28 6bbc b4fb 333e ad05 3bbf 48b7 ecbd
00000290: d47d cdbe 460c 113e 3a14 443e 6d68 863e
000002a0: ca5c a8bd 0a28 db3d 832c 86be 4944 9dbe
000002b0: d179 193e 4a4e 4f3e c782 16be 1190 083e
000002c0: 9d1c 333e 3268 2abc 78d7 7a3d 8828 38be
000002d0: 42a2 4a3e aba3 bebe fb38 1dbf 32f6 f03d
000002e0: f897 7cbe fe6b de3c b2d8 d93d 6473 4dbe
000002f0: ee01 703d 984b 06bf acd5 763e 0bdb b73c
00000300: 70c3 cfbc aa4d 613e b868 ff3d 8d91 313e
00000310: 08c4 ebbd f81b 3a3d a3d1 5f3e 358a 213e
00000320: b5b2 29bd 0d7d 0b3e 146f 1f3b a7b9 0a3e
00000330: 5881 24bd 722e 69be 2a35 a13d 26ff 41bc
00000340: da02 25bd 5ed5 003e 3cd1 b23d 8e74 883e
00000350: 855c 2f3e c6cf e33d 3928 033c ac42 5e3d
00000360: 6a03 7f3d d879 36bd 66f3 d83d 7b31 c83d
00000370: de70 003e 17a5 613e ca99 7abe 6b3f 15bc
00000380: 2cf4 5e3d b15f 013d e70d 093e c3da 743d
00000390: a39f c1bd 5833 11bc d626 fc3d a327 173e
000003a0: eaf1 d6bd def3 58bc 20a1 7f3d e8ab b3bd
000003b0: fff5 44bc 28e8 083e b104 d53c 922a e53d
000003c0: aa6a ec3d 31f4 ba3d 6158 9dbd 46a7 d23d
000003d0: 6701 633d 5030 d43d b734 90bc e4c6 34bc
000003e0: 08a1 5e3e d033 7bbd c7e2 913c 01ad 1fbd
000003f0: 18a4 bbbc df96 f23d 1e56 213e 7083 1ebe

layers.3.bias f4 [11]
-0.04691611 0.12876093 0.21601842 -0.07183964 -0.032315463 -0.0759252 -0.2059634 -0.10273971
0.06247901 0.0105947945 0.18471909
00000000: 1b2b 40bd e8d9 033e ef33 5d3e a920 93bd
00000010: 385d 04bd ac7e 9bbd 12e8 52be 3269 d2bd
00000020: fee9 7f3d ca95 2d3c 0027 3d3e

batchnorms.0.weight f4 [256]
0.9456357 1.075038 1.0269502 0.9167005 1.2981313 1.0833453 0.9438227 0.85955006
0.92476845 0.96814406 0.85301626 0.86002725 1.116013 0.915233 0.837343 0.9191997
0.8833234 1.0518614 0.9843265 0.893245 0.89732933 0.87452984 1.0394139 0.97194374
1.0046728 1.0117272 0.9237928 1.0313493 0.75328326 1.1885935 0.98188114 0.8443428
0.9071634 1.019612 0.90862846 0.8362411 0.9966996 0.8971305 1.123238 0.8936012
0.8488151 0.9073711 0.96685696 1.2039565 0.97293353 1.3668259 0.830268 0.92285967
0.8391913 0.9172064 0.81029975 0.94298995 1.1260096 0.9352587 0.9143909 0.8649838
0.95169044 0.8940656 1.0517571 1.1194686 0.92001855 1.1232662 1.0466517 0.94478726
1.020418 0.89563954 1.0272028 1.0178902 0.83629 0.8192426 0.9258226 0.81680834
0.9402213 0.83065593 0.96047056 1.0155004 0.8737165 0.93266463 0.88855183 1.1812419
0.8993465 1.0530804 1.0212861 0.89279354 1.0085927 0.9709209 0.97828734 1.019391
0.96704733 1.023616 0.90966463 0.91826105 1.0663307 0.8368232 0.883782 0.95351887
1.013418 0.99148536 0.8802936 0.9555999 1.1191884 1.0982412 0.91843367 0.91431046
1.0562377 1.0800306 0.90234387 1.1674204 1.0169576 0.9878694 0.86447453 0.94952226
1.0478708 1.1488266 1.0061196 0.7672982 0.92467463 1.0047097 0.95236623 1.0835762
0.9451479 0.910552 0.8743485 0.9639435 0.8783804 0.9079708 1.0989121 0.9695374
0.8869317 0.85287464 0.8684658 1.1219599 0.8546006 0.9418816 0.8565476 0.9244456
1.0107362 0.81232226 0.95994866 0.9313086 0.91227543 1.155804 1.0587506 0.9949938
0.84411645 0.99884033 0.84549665 0.86608136 0.85601145 0.98873156 0.85414416 1.1995356
0.9719534 0.9569266 1.1270846 0.8649481 0.8481156 1.0792402 0.9480388 0.90994936
0.9718509 0.96634805 0.8442304 1.0343951 0.9022218 0.9255265 0.9348374 1.0855955
0.983734 1.012192 0.8398614 0.9217592 0.9494966 1.0260237 1.0148945 1.0162581
0.9634891 0.78560126 1.0576987 0.9669663 0.95896006 0.89532447 0.982746 0.9624677
1.0742916 0.8457883 1.1718228 0.95588326 0.82945037 1.308971 0.82683754 0.8955035
0.93410254 0.93255067 1.1088437 0.82282305 1.1040441 0.9066124 1.0312967 1.0855539
1.0055286 1.0181499 0.9290799 1.0427805 0.9166931 0.93000245 1.0301762 0.88154423
0.9345201 0.9193992 1.0801169 1.0539017 0.893111 1.003872 0.8333335 0.9838841
0.89919275 0.9362743 1.0158284 1.0179763 0.91100574 0.83943963 0.98095995 0.7857238
1.127297 0.99368024 0.8707554 0.8521317 1.0184608 0.9588976 1.1371434 0.96202826
0.8813338 1.0078777 1.0305884 0.9737568 0.8872011 0.962168 0.9748752 0.9287416
1.2255275 1.2356001 1.2513338 1.170539 1.0012716 0.8904629 1.0008383 1.0097588
1.0311204 0.88567054 0.91990834 1.1314161 0.79525876 0.9963292 0.93368745 1.1206243
00000000: 2e15 723f d89a 893f 1b73 833f e2ac 6a3f
00000010: 2b29 a63f 0fab 8a3f 5d9e 713f 790b 5c3f
00000020: a0bd 6c3f 4ad8 773f 465f 5a3f bf2a 5c3f
00000030: 84d9 8e3f b64c 6a3f 1c5c 563f ac50 6b3f
00000040: 7b21 623f 65a3 863f d2fc 7b3f b4ab 643f
00000050: 60b7 653f 30e1 5f3f 840b 853f 4ed1 783f
00000060: 1e99 803f 4780 813f af7d 6c3f 4103 843f
00000070: 2cd7 403f d523 983f 905c 7b3f da26 583f
00000080: dc3b 683f a582 823f e09b 683f e613 563f
00000090: b427 7f3f 58aa 653f 43c6 8f3f 0cc3 643f
000000a0: f24b 593f 7949 683f f083 773f 3f1b 9a3f
000000b0: 2c12 793f 27f4 ae3f 728c 543f 8840 6c3f
000000c0: 3ed5 563f 0ace 6a3f ce6f 4f3f ca67 713f
000000d0: 1521 903f 1d6d 6f3f 8615 6a3f 946f 5d3f
000000e0: fca1 733f 7ce1 643f fa9f 863f bf4a 8f3f
000000f0: 5686 6b3f 30c7 8f3f aff8 853f 94dd 713f
00000100: 0f9d 823f a248 653f 627b 833f 3a4a 823f
00000110: 1a17 563f e2b9 513f b602 6d3f 5a1a 513f
00000120: 58b2 703f dea5 543f 66e1 753f ebfb 813f
00000130: e2ab 5f3f 1cc3 6e3f 2278 633f ef32 973f
00000140: 923b 663f 57cb 863f 81b9 823f 1e8e 643f
00000150: 9119 813f 468e 783f 0a71 7a3f 677b 823f
00000160: 6a90 773f d905 833f c8df 683f 2813 6b3f
00000170: 867d 883f 0c3a 563f 8a3f 623f d019 743f
00000180: aeb7 813f fcd1 7d3f ec5a 613f 32a2 743f
00000190: 9141 8f3f 2b93 8c3f 781e 6b3f 4010 6a3f
000001a0: cc32 873f 713e 8a3f 0200 673f 086e 953f
000001b0: ab2b 823f 02e5 7c3f 344e 5d3f e413 733f
000001c0: a120 863f c00c 933f 87c8 803f a86d 443f
000001d0: 7ab7 6c3f 549a 803f 46ce 733f a0b2 8a3f
000001e0: 36f5 713f f019 693f 4ed5 5f3f 00c5 763f
000001f0: 8add 603f c670 683f 27a9 8c3f 9a33 783f
00000200: f50d 633f fe55 5a3f c653 5e3f 629c 8f3f
00000210: 1bc7 5a3f 271f 713f b446 5b3f 78a8 6c3f
00000220: ce5f 813f 5af4 4f3f 32bf 753f 3e6a 6e3f
00000230: e28a 693f 63f1 933f 2485 873f eab7 7e3f
00000240: 0418 583f 00b4 7f3f 7872 583f 82b7 5d3f
00000250: 9123 5b3f 831d 7d3f 31a9 5a3f 628a 993f
00000260: f0d1 783f 24f9 743f 4f44 903f 3d6d 5d3f
00000270: 1b1e 593f 8b24 8a3f acb2 723f 71f2 683f
00000280: 38cb 783f 9662 773f 7c1f 583f 0f67 843f
00000290: 02f8 663f 4eef 6c3f 8151 6f3f cbf4 8a3f
000002a0: fed5 7b3f 828f 813f 2801 573f 69f8 6b3f
000002b0: 3612 733f bf54 833f 10e8 813f bf14 823f
000002c0: 39a7 763f 2a1d 493f ac62 873f 1a8b 773f
000002d0: 687e 753f fc33 653f 3e95 7b3f 4864 763f
000002e0: 6382 893f 9585 583f 4afe 953f c4b4 743f
000002f0: dc56 543f 5d8c a73f a0ab 533f b83f 653f
00000300: 5821 6f3f a4bb 6e3f 97ee 8d3f 88a4 523f
00000310: 5151 8d3f c017 683f 8801 843f 6ef3 8a3f
00000320: 29b5 803f bc52 823f 2ed8 6d3f d579 853f
00000330: 66ac 6a3f a414 6e3f d0dc 833f e2ac 613f
00000340: b63c 6f3f bf5d 6b3f 4541 8a3f 40e6 863f
00000350: eca2 643f e17e 803f 5855 553f d4df 7b3f
00000360: 7f31 663f acaf 6f3f aa06 823f 0c4d 823f
00000370: ac37 693f 84e5 563f 3120 7b3f 3225 493f
00000380: 454b 903f d461 7e3f d3e9 5e3f 4e25 5a3f
00000390: ec5c 823f 507a 753f ea8d 913f 7c47 763f
000003a0: 189f 613f 2302 813f 52ea 833f 2048 793f
000003b0: 9c1f 633f a450 763f 6c91 793f 02c2 6d3f
000003c0: 16de 9c3f 2528 9e3f b52b a03f 39d4 953f
000003d0: ab29 803f 60f5 633f 781b 803f c73f 813f
000003e0: c1fb 833f 4ebb 623f 1d7f 6b3f 3ed2 903f
000003f0: 1496 4b3f 6e0f 7f3f 2406 6f3f 9e70 8f3f

batchnorms.0.bias f4 [256]
-0.16776682 -0.13517559 -0.072771855 0.05566125 0.24618274 0.106689304 -0.055899844 -0.28483555
-0.30454817 -0.17383868 -0.12925857 0.024410369 -0.08442862 -0.053047 -0.14551413 -0.026472278
-0.292932 -0.09034773 -0.019268403 -0.18892652 -0.07013889 -0.30111578 -0.13421129 -0.0955026
-0.15582043 -0.1603352 -0.07887051 -0.04484188 -0.24421778 -0.085494265 -0.12914447 -0.052050643
-0.16463536 -0.16576469 -0.15907954 -0.2542878 -0.18750651 -0.12420945 -0.1619828 -0.18664266
-0.068994835 -0.109711766 -0.069510706 -0.061094888 -0.11496921 0.13733003 -0.19623125 -0.15969105
-0.15185705 -0.061632838 -0.16678774 -0.10829596 -0.14401045 -0.17086904 -0.12265761 -0.23462766
-0.05414615 -0.13795345 -0.0032619368 -0.119634524 -0.2166507 -0.26204526 0.022134181 -0.20472068
-0.19205362 -0.11949396 -0.13557264 -0.20105687 -0.19920765 -0.24600762 -0.14997923 -0.14125149
-0.19280277 -0.0759015 -0.06766176 0.005170943 -0.20894048 -0.1712282 -0.13272902 -0.10779986
-0.15628187 -0.102280885 -0.14091119 -0.1456554 -0.18678461 -0.28237262 -0.15185541 -0.24820541
-0.15464568 -0.19969931 -0.0068736738 -0.20128544 -0.15854275 -0.21332252 -0.11355818 -0.05798042
-0.15402502 -0.22505426 -0.11666215 -0.1250657 -0.12072238 0.17117125 -0.13800456 -0.18125527
-0.22981322 -0.07416606 -0.21696702 -0.14213653 -0.12463179 -0.18353595 -0.085021675 -0.1631138
-0.09055468 -0.14354336 -0.17593804 -0.13957249 -0.19136557 -0.22985363 -0.17913918 -0.12008363
-0.1005255 -0.048313186 -0.23124641 -0.017240748 -0.02787973 -0.05371595 -0.23255962 -0.16216242
-0.14354107 -0.24254954 -0.1808484 -0.076876 -0.26488447 -0.09948839 -0.18972336 -0.31906098
-0.11193792 -0.110723495 -0.06480329 -0.21207371 -0.15036923 -0.3208168 -0.02586489 -0.027075643
-0.18810487 -0.19710723 -0.053796373 -0.16368821 -0.20499189 0.009435536 -0.26161778 -0.23947793
-0.079159014 -0.22688013 -0.159594 -0.12326905 -0.2182982 -0.099421725 -0.11828959 -0.28721407
-0.11049086 -0.18916573 -0.17171039 -0.08541175 -0.21412694 -0.038898334 -0.050012402 -0.21652433
-0.15476966 -0.045094877 -0.22149727 -0.06704864 -0.15390846 -0.09272805 0.011258159 -0.06744062
-0.14847185 -0.20830485 -0.0891118 -0.007997924 -0.12016158 0.04772371 -0.1757892 0.030648883
-0.2412852 -0.20342934 -0.0105897095 -0.13654047 -0.13185929 0.083948635 -0.15380323 -0.21491635
-0.2027829 -0.26028705 -0.18364029 -0.24292022 -0.23357275 0.004524325 -0.018408967 -0.08989197
-0.07173245 -0.13274652 -0.102641985 -0.053628914 -0.15922341 -0.2076228 -0.22252056 -0.21618563
-0.16814409 -0.14178613 -0.038485985 0.003469712 -0.09989792 -0.07823485 -0.18949203 -0.16273086
-0.22708838 -0.21172342 -0.072003186 -0.11151621 -0.16020353 -0.25685698 -0.053474262 -0.22297007
-0.21374848 -0.18801856 -0.116162226 -0.10131452 -0.1902731 -0.19584465 -0.03673146 0.034962934
-0.111518115 -0.04871881 -0.18072595 -0.32807088 -0.052897945 -0.10168967 0.0072040274 -0.0925045
-0.35546547 -0.13540728 0.10851588 0.06513245 -0.02596414 -0.13612789 0.060742807 -0.19571142
0.044535946 -0.081275016 -0.1367103 -0.024755292 -0.16628966 -0.21358496 -0.11908213 -0.12831788
00000000: 11cb 2bbe 786b 0abe 6909 95bd 0dfd 633d
00000010: 5417 7c3e ec7f da3d 3cf7 64bd f7d5 91be
00000020: bded 9bbe c402 32be 5c5c 04be 41f8 c73c
00000030: eae8 acbd d047 59bd a801 15be 64dc d8bc
00000040: 2ffb 95be 3b08 b9bd c5d8 9dbc f475 41be
00000050: faa4 8fbd d92b 9abe af6e 09be de96 c3bd
00000060: 648f 1fbe e92e 24be dd86 a1bd 1fac 37bd
00000070: 3a14 7abe 9e17 afbd 733e 04be 0e33 55bd
00000080: 2c96 28be 38be 29be bfe5 22be 0332 82be
00000090: b501 40be 8661 febd d2de 25be 411f 3fbe
000000a0: 2a4d 8dbd 90b0 e0bd a15b 8ebd a23e 7abd
000000b0: fa74 ebbd 3ea0 0c3e d8f0 48be 0d86 23be
000000c0: 6a80 1bbe b772 7cbd 68ca 2abe 46ca ddbd
000000d0: 7a77 13be 4bf8 2ebe ea33 fbbd 3c42 70be
000000e0: 5ac8 5dbd ab43 0dbe 38c6 55bb f202 f5bd
000000f0: aed9 5dbe cc2a 86be be52 b53c 4ca2 51be
00000100: b4a9 44be 40b9 f4bd 8ed3 0abe dae1 4dbe
00000110: 17fd 4bbe 6ce9 7bbe 2894 19be 3ba4 10be
00000120: 176e 45be 3f72 9bbd 4092 8abd 0471 a93b
00000130: 7ef4 55be 7256 2fbe 1eea 07be 2cc6 dcbd
00000140: 5b08 20be a478 d1bd 064b 10be b026 15be
00000150: 7744 3fbe 2593 90be fc7f 1bbe 8f29 7ebe
00000160: 705b 1ebe fa7d 4cbe 8e3c e1bb c51d 4ebe
00000170: 0859 22be 3871 5abe 3191 e8bd e07c 6dbd
00000180: bcb8 1dbe a074 66be 91ec eebd 3911 00be
00000190: 4c3d f7bd 8447 2f3e 1151 0dbe fb9a 39be
000001a0: 2854 6bbe 60e4 97bd 9a2c 5ebe 3d8c 11be
000001b0: f43e ffbd d9f0 3bbe d81f aebd 4e07 27be
000001c0: bb74 b9bd 08fd 12be 1a29 34be 17ec 0ebe
000001d0: 56f5 43be c05e 6bbe 4370 37be 68ee f5bd
000001e0: 50e0 cdbd 0ce4 45bd dccb 6cbe 783c 8dbc
000001f0: 0864 e4bc 4205 5cbd 1c24 6ebe e80d 26be
00000200: 6efc 12be e85e 78be 5330 39be 2a71 9dbd
00000210: f09e 87be 92c0 cbbd d746 42be f65b a3be
00000220: b53f e5bd 00c3 e2bd 96b7 84bd da29 59be
00000230: 64fa 19be 1a42 a4be 9be2 d3bc bdcd ddbc
00000240: 909e 40be 7ad6 49be 9659 5cbd e29d 27be
00000250: 65e9 51be 8297 1a3c c4f2 85be b439 75be
00000260: 1f1e a2bd 4453 68be 9c6c 23be 7c74 fcbd
00000270: 9089 5fbe 9e9d cbbd d041 f2bd b90d 93be
00000280: 0849 e2bd a9b4 41be d9d4 2fbe 5bec aebd
00000290: 1844 5bbe dc53 1fbd ced9 4cbd 8eb8 5dbe
000002a0: f07b 1ebe 68b5 38bd 2ed0 62be cc50 89bd
000002b0: 2e9a 1dbe 34e8 bdbd 2474 383c 4f1e 8abd
000002c0: 0109 18be de4d 55be 3f80 b6bd ba09 03bc
000002d0: 4617 f6bd f079 433d 1602 34be 5e13 fb3c
000002e0: 7813 77be c84f 50be 7680 2dbc 44d1 0bbe
000002f0: 1f06 07be 43ed ab3d 987e 1dbe 0813 5cbe
00000300: 52a6 4fbe 5844 85be 330c 3cbe 14c0 78be
00000310: b22d 6fbe ca40 943b 67ce 96bc 4819 b8bd
00000320: 76e8 92bd b4ee 07be f635 d2bd fea9 5bbd
00000330: 760b 23be 129b 54be 6edc 63be c45f 5dbe
00000340: f72d 2cbe 6230 11be 7ba3 1dbd 1c64 633b
00000350: 4897 ccbd 9839 a0bd 330a 42be eba2 26be
00000360: db89 68be 06ce 58be 6876 93bd 9c62 e4bd
00000370: 650c 24be c282 83be d407 5bbd 4452 64be
00000380: e2e0 5abe f087 40be 76e6 edbd fd7d cfbd
00000390: f4d6 42be 808b 48be ba73 16bd 4b35 0f3d
000003a0: 9c63 e4bd 608d 47bd 3910 39be e8f8 a7be
000003b0: 84ab 58bd ac42 d0bd c30f ec3b 0073 bdbd
000003c0: 92ff b5be 35a8 0abe 933d de3d 2964 853d
000003d0: c0b2 d4bc 1c65 0bbe 73cd 783d 9368 48be
000003e0: 536b 363d 8473 a6bd c9fd 0bbe 9ccb cabc
000003f0: d647 2abe 04b6 5abe 55e1 f3bd c365 03be
